training_1/model.onnx (onnx, 720284 bytes, 6 tensors)

StatefulPartitionedCall/sequential_5/dense_11/MatMul/ReadVariableOp:0 f4 [10, 1]
000000 74 2c 6e 3f 95 e6 5c 3f 90 ef 42 bf 32 79 7b 3f
       0.9303658 0.8628934 -0.76146793 0.98231804
000010 d3 35 5a 3f d4 5b 42 bf 91 62 56 3f 53 46 4b 3f
       0.8523838 -0.7592137 0.8374415 0.7940418
000020 7d be 45 bf 48 58 80 3f
       -0.7724379 1.0026941

StatefulPartitionedCall/sequential_5/dense_10/MatMul/ReadVariableOp:0 f4 [1920, 10]
000000 cf ad d4 3a 6c 7d 0c 3d 64 18 6c bd 25 73 ed 3c
       0.0016226115 0.0342993 -0.05764045 0.02898557
000010 50 fa af 3d 67 58 56 bd c9 49 7a 3a ac ac 87 3d
       0.08592665 -0.0523304 0.0009547738 0.066247314
000020 b1 77 fb bc 72 9c 7a 3d 41 4f d0 bc 60 d0 ba 3c
       -0.030696722 0.061184354 -0.025428416 0.022804439
000030 31 d6 ab 3c e1 f2 2d bd b5 72 55 3d 93 0a ee bc
       0.020976158 -0.042467955 0.052111346 -0.029057777
000040 1f ff 13 3b 4c 78 3c 3c a6 03 4e bd 6c 50 31 3d
       0.0022582484 0.01150329 -0.05029645 0.043289587
000050 b8 72 83 3d e6 1e 25 bd de 7c 2b 3d f6 65 a1 bb
       0.06418365 -0.04031267 0.04186713 -0.004925485
000060 6f 61 07 3d 00 59 35 bd 8a 98 74 bd 20 40 15 3d
       0.033051904 -0.04427433 -0.059715785 0.036438107
000070 8d 70 f3 bc 36 2c f8 3c 53 64 27 3d 44 92 70 3d
       -0.029716754 0.030294519 0.04086716 0.05873324
000080 d4 ba 58 3d 05 b7 c2 bc 53 75 a2 3c a5 5a 9b 3d
       0.05291255 -0.023768911 0.019831335 0.075856484
000090 a2 96 5b 3d b2 30 1c 3d 06 58 29 3d 7c 8b 26 3c
       0.05361045 0.038132377 0.04134371 0.010165092
0000a0 ad 19 09 3b a6 46 61 bb ca 8e 38 bd d5 e6 8a 3d
       0.0020919845 -0.0034374385 -0.04505805 0.06782309
0000b0 60 07 96 bd 45 72 07 bd 17 81 54 ba fa 19 83 bd
       -0.073256254 -0.03306796 -0.0008106394 -0.06401439
0000c0 08 a8 ea 3c dc bc 37 3d 91 5f 64 3d a5 ff 48 bd
       0.028644577 0.044857845 0.0557552 -0.049071927
0000d0 64 20 ad bc 2b 80 18 3d 44 59 f0 3c d1 a0 c7 bc
       -0.02113361 0.037231605 0.02933944 -0.024368675
0000e0 d7 9e 90 bc cc 07 03 bd 29 dd 1a bd a5 7a d5 3d
       -0.017653866 -0.031989858 -0.03780857 0.10423783
0000f0 fd d0 a1 3c e9 09 27 3d e2 4e 44 3d 1b a3 1a bd
       0.019752974 0.040780935 0.04792679 -0.037753206
000100 7d 84 bf 3d 76 89 07 3c 17 2c 6f bd 2d c3 9e bc
       0.09351442 0.008272519 -0.058391657 -0.019380176
000110 eb 9e 90 ba b8 27 17 3d ca 80 cd bd 3d dc 08 3d
       -0.0011033689 0.036903113 -0.1003433 0.03341316
000120 1e 2f 1e bd b5 27 40 3d c5 45 b0 bd 43 eb 75 3d
       -0.038619153 0.046912868 -0.086070575 0.060038816
000130 13 a8 54 bd 70 8c 22 be 56 5b 37 3d 7a 46 8d bc
       -0.0519181 -0.15873885 0.04476484 -0.01724552
000140 eb 76 ba bd fb 94 99 ba 24 79 b0 3c c1 3d 63 bd
       -0.09104713 -0.0011717373 0.02154214 -0.055478815
000150 43 be 0d bd 2e 01 52 bc 86 9a 4b bd 8a d3 c8 bd
       -0.034605276 -0.012817664 -0.049707912 -0.09805973
000160 57 4d 53 3d dd 36 4a bd ba 75 7a bd 96 3b 2c 3d
       0.05158743 -0.049368728 -0.06114743 0.042049013
000170 0a 60 1b bd c7 11 b3 3c 1c d6 9a bd 13 92 e7 3c
       -0.037933387 0.021859063 -0.07560369 0.028267896
000180 53 20 54 bd 3e b9 67 bd 0b 9f f2 b9 3b 79 8e bd
       -0.05178864 -0.056573145 -0.00046276333 -0.069567166
000190 6c a6 fd 3c b9 a9 87 3b ac fd 58 bd 8c ab 61 3d
       0.030963145 0.0041401056 -0.052976295 0.05509524
0001a0 e8 c0 27 3d cc 7c 39 3d bf d1 3b 3c 3b 15 01 bd
       0.040955454 0.04528503 0.011463582 -0.031514388
0001b0 ed f7 82 3c a8 c6 07 3e 7b f5 0d bd 25 d1 74 bd
       0.01598736 0.13259375 -0.034657937 -0.05976977
0001c0 79 c2 bc 3d 10 80 0d bc d3 ba db bd d0 70 f5 bc
       0.0921678 -0.0086364895 -0.10728993 -0.02996102
0001d0 9f 2d 8a 3d b4 66 33 3b 66 9b 6a bd 25 9f 70 3b
       0.06746983 0.0027374448 -0.057277106 0.0036715951
0001e0 18 80 b2 bd d9 43 2d 3c 21 01 c1 3b 76 62 9c bd
       -0.08715838 0.010575258 0.005890027 -0.076359674
0001f0 60 91 82 bd 7f 60 a6 3d 4a 9c a3 bb f4 d7 cf bd
       -0.06375384 0.08123874 -0.0049929963 -0.10148612
000200 76 76 3e bb 16 41 bb bd 70 aa b6 bc 3d ea 87 bc
       -0.0029062307 -0.091432735 -0.022298068 -0.016591186
000210 d6 2d 4e 3d 0c e4 28 bd 51 1c 17 3c 61 c2 ad 3c
       0.05033668 -0.041233107 0.00922306 0.021210851
000220 4a 3a c3 bd 35 c3 31 bd 84 b4 6d 3c 73 7f 2f bd
       -0.09532602 -0.043399055 0.01450837 -0.042846154
000230 73 7e 0f bd 0c 04 a6 3c cb 59 2e bd 68 30 15 bd
       -0.0350327 0.020265602 -0.042566102 -0.036423117
000240 3b 62 24 bd 78 5e 2f 38 fe 16 a7 bc 97 27 b9 bc
       -0.040132742 4.1811232e-05 -0.020396706 -0.022601886
000250 74 8d c0 3c 8d 62 00 bd 33 65 8c bc ee 71 91 3d
       0.02350495 -0.031343985 -0.0171381 0.071018085
000260 9b 7c 1f bb ca 03 92 3d 3d 1e 9b b9 5f 2b 42 bd
       -0.0024335745 0.07129629 -0.00029586433 -0.047404643
000270 29 c4 87 3d 4b cb ae 3d df e2 26 3c 89 1b 9f 3d
       0.066292115 0.08534869 0.010185926 0.07768924
000280 df 24 ec bc 6d df 83 3d 86 5b 73 bc 33 c8 88 3d
       -0.028826175 0.064390995 -0.014853364 0.0667881
000290 df d7 4b 3d 33 7d 3c bd 5d 4c 20 3d de 51 67 bc
       0.049766418 -0.046017837 0.039135326 -0.01411864
0002a0 10 13 05 bd 1d 30 d6 bc b6 ef 8a bd c7 82 0c bc
       -0.032488883 -0.02614599 -0.067840025 -0.008576102
0002b0 8e 8b c4 3c 58 e7 68 bd 0f e8 66 bd dd f5 bb 3c
       0.023992326 -0.05686125 -0.056373652 0.022944385
0002c0 cd 4b 2c 3c d8 64 c0 3b 6a 62 a4 bc 6c 4f 91 bc
       0.010516119 0.0058713965 -0.020066459 -0.017738067
0002d0 20 18 9a 3c ec ca 0c bd bb 02 6a 3c b8 53 b8 3c
       0.018810332 -0.03437321 0.014282878 0.022500858
0002e0 cf 9b c6 bc cd 8e cd 3c c7 e5 4f 3d 1e 16 4a bd
       -0.024244217 0.025092507 0.050756242 -0.0493375
0002f0 6e 6b db 3b b2 e6 af bd 6a a1 37 3d 01 55 10 3c
       0.006696156 -0.085889235 0.04483167 0.008809329
000300 e4 95 d4 3b 07 f2 50 3d a6 c8 a8 3c 24 56 a1 3c
       0.006487595 0.051012065 0.02060349 0.019694395
000310 8a f8 38 3a 3b 9d 93 bd 24 69 10 bc 70 22 69 bc
       0.0007056078 -0.07207724 -0.00881413 -0.014229402
000320 1d 23 7f bd 36 8c 91 3c c2 7d 20 3d b8 0d 85 3d
       -0.062289346 0.017767053 0.039182432 0.06496757
000330 bf 41 67 bd 48 cb 97 bc 22 e3 53 bc f2 74 b9 bd
       -0.056459185 -0.01852955 -0.012932571 -0.09055509
000340 62 85 5b 3c 86 55 9d bd 8f 9d 79 bd 2a da f0 3c
       0.0133985 -0.07682328 -0.060941275 0.029400904
000350 60 4b 10 bb 4c 09 82 bd 38 6a 6d 3c e7 89 4e 3d
       -0.0022017583 -0.063494295 0.014490657 0.050424483
000360 fb 18 c6 3b fb e6 0c bb a7 05 9a 3b ed a8 5e bd
       0.0060454584 -0.002149998 0.004700381 -0.05436032
000370 e9 85 38 ba 63 45 20 3d 1e b5 30 bd c7 c1 66 bc
       -0.0007038997 0.039128672 -0.043141477 -0.014084286
000380 7c cd 88 bd 8f 0c 31 bd 1e 35 31 bd c5 28 a5 bc
       -0.06679818 -0.043224867 -0.043263547 -0.020161042
000390 40 af 18 bd 2c e5 3d 3c bd 5f 6a bc 72 8c 21 bd
       -0.037276506 0.011590283 -0.014305052 -0.03944058
0003a0 66 30 5b 3d 96 31 9d bc 23 d0 d1 3c 89 6e cb bc
       0.053512953 -0.019188683 0.025611943 -0.02483298
0003b0 d7 31 a2 bd 79 10 4c bc bc ec 0a bd ef 4a a4 bc
       -0.079196624 -0.012455099 -0.033917174 -0.020055262
0003c0 e1 f8 16 3c 80 53 29 bd f8 9e 50 3d 26 ed c3 3c
       0.009214611 -0.041339397 0.050932854 0.023916792
0003d0 93 2e 86 bd 5b b7 2d 3d f0 1e 29 bd 31 50 5c 3c
       -0.06551852 0.04241119 -0.04128927 0.0134468535
0003e0 07 90 0f bd 50 1d f1 bd 60 20 b4 3c 54 ad b0 bc
       -0.035049465 -0.11773169 0.021988094 -0.021567024
0003f0 fc 36 fa 3c 84 09 6b 3d 90 82 a9 3b cb cd eb bc
       0.030543797 0.05738212 0.005173035 -0.028784653

StatefulPartitionedCall/sequential_5/dense_10/BiasAdd/ReadVariableOp:0 f4 [10]
000000 7b 13 e0 3d 47 a9 9e 3d 7f db ab bd b1 5e 85 3d
       0.109412156 0.07747131 -0.08391475 0.065122016
000010 0b 60 b1 3d be 9c b4 bd 3d e0 82 3d d7 0a e2 3d
       0.08660897 -0.08818959 0.06390426 0.11037224
000020 7c 7b ab bd 4a 71 2a 3d
       -0.08373162 0.041611947

StatefulPartitionedCall/sequential_5/batch_normalization_3/batchnorm/sub:0 f4 [10]
000000 34 1e a5 bf c0 bd ac bf ff 97 4a be 78 2e 38 bf
       -1.2899842 -1.3495407 -0.19784544 -0.71945906
000010 c3 1f a6 bf 05 e3 31 be 5e a9 af bf 48 95 af bf
       -1.2978443 -0.17371757 -1.3723562 -1.3717432
000020 cc f7 30 be e5 1e 91 bf
       -0.17282027 -1.1337553

StatefulPartitionedCall/sequential_5/batch_normalization_3/batchnorm/mul:0 f4 [10]
000000 e2 d8 56 41 81 31 57 41 aa 9d e5 41 28 55 5e 41
       13.42795 13.449586 28.701984 13.89579
000010 5c cb 4f 41 fc b0 e2 41 20 25 62 41 1d 9a 45 41
       12.987148 28.336418 14.134064 12.350125
000020 8a bf e5 41 65 5e 65 41
       28.718525 14.335546

Func/StatefulPartitionedCall/input/_1:0 f4 [10000, 16]
000000 f3 ce 35 3c f0 18 7a 3c 03 8d c7 39 9b b8 1a 39
       0.011096704 0.015264735 0.000380613 0.00014755355
000010 30 5b 64 bb e2 17 42 bc 66 26 b3 bb 06 b5 52 bc
       -0.003484439 -0.011846514 -0.005467224 -0.012860542
000020 4e 95 39 bc 4c 83 d3 3a a9 cc 41 ba 93 04 d0 bb
       -0.011327101 0.0016137152 -0.00073928625 -0.0063482015
000030 5e 7f 81 bc fd 74 0f 3b d8 89 6d 3c d7 1d 84 3c
       -0.015807804 0.0021889799 0.014498197 0.01612751
000040 7b c8 48 3c 5f d9 66 3b b1 a7 3c bc 96 4d 3e bd
       0.0122548295 0.0035224778 -0.01151459 -0.04646071
000050 e5 16 44 bd 76 64 83 3c 29 a7 35 bd 8c 55 e9 bc
       -0.047873396 0.016039114 -0.04434887 -0.028483175
000060 6e 57 56 bd ed 5d 18 bc 16 0a 18 3c 3c 8e e5 3c
       -0.052329473 -0.009299737 0.009279748 0.028021924
000070 7d d5 26 3c 37 ea 02 bd 12 c2 02 3d 94 e3 5e 3d
       0.0101827355 -0.031961646 0.03192336 0.054416254
000080 87 90 57 bc 52 10 d4 3b 99 ef 39 3d f9 cb b1 3d
       -0.013157017 0.006471672 0.045394514 0.08681483
000090 96 c4 4d bd 80 62 d6 b6 4f 3e f2 bb 46 cf 95 3d
       -0.050236307 -6.389164e-06 -0.0073926817 0.07314925
0000a0 4e ca 8d bc 3d 9a a2 bc db 35 3b bd 41 3a 4d bc
       -0.01730838 -0.019848937 -0.045705657 -0.012526096
0000b0 ab 1d 55 bc ec 24 b4 bd 35 3c 44 bd db 2f 45 3c
       -0.013007562 -0.08796105 -0.04790898 0.012035335
0000c0 75 8d 12 bd 7d 14 9e bc 26 ae 1a bd 5a 16 45 bd
       -0.035779435 -0.019296879 -0.037763737 -0.04811702
0000d0 a3 22 68 3d a2 57 51 3d 94 12 06 bc 2c 54 72 3b
       0.056673657 0.051108964 -0.00818314 0.003697644
0000e0 6a c4 49 3d 03 03 01 bc 2e 05 df 3c 5e 3f 34 3d
       0.04925958 -0.007874253 0.02722415 0.044005744
0000f0 7e de c7 3d f6 db d8 bb 40 07 0e be 12 28 9c bc
       0.09759234 -0.0066180183 -0.13869953 -0.019062076
000100 a3 83 cd bd 6b b2 9e be d5 45 bb bd 00 4a bb bd
       -0.10034873 -0.30995497 -0.09144179 -0.09144974
000110 d6 aa 56 3e fe ae 8c 3e f3 3b 93 bb f3 9b 9b 3e
       0.20963606 0.27477258 -0.0044932305 0.30392417
000120 d3 7c a0 3e c2 cf 56 be 9f 01 29 3e c6 ed 27 3e
       0.31345233 -0.20977691 0.16504525 0.16399297
000130 7b 89 93 3e a9 96 08 be 1b a4 81 be 4c cb af be
       0.28815827 -0.13338722 -0.25320515 -0.3433479
000140 74 6e 39 3c f1 57 4f 3d 83 49 62 3c 0a 5d 1c 3d
       0.011317838 0.050620977 0.013811472 0.038174666
000150 ee a8 ef bc 23 6b 4c 3c eb 84 d5 3c f3 2a 42 3c
       -0.029255357 0.012476715 0.026064357 0.01185106
000160 b9 f8 91 bd 24 d0 ae 3b 65 99 86 bd 0a 22 e3 3c
       -0.07127518 0.005334871 -0.065722264 0.027726192
000170 b3 89 98 bd ad d0 32 bd 34 43 d1 bc 25 4a de 3c
       -0.07448139 -0.04365604 -0.02554474 0.027134964
000180 4c 7c b4 bc d7 d4 9a bc 0c 87 8b 3d b6 97 28 bd
       -0.022031926 -0.018900318 0.068128675 -0.041160308
000190 bc bc a6 bc fb 1e c8 3c 66 de 03 bd ff a8 2f bd
       -0.020353667 0.024428835 -0.032194518 -0.042885777
0001a0 5f b0 20 bb 10 8a 5c 3b 9b 6f fe bd 8b 46 a3 3c
       -0.0024519188 0.0033651628 -0.12423631 0.019931098
0001b0 57 a2 42 bd de a7 2a 3d fb 6d 14 bd c7 15 83 3d
       -0.0475181 0.041663997 -0.036237698 0.06400638
0001c0 41 ef 2d 3d 74 a6 46 3c 5c 71 70 3c 68 e1 c1 bb
       0.0424645 0.012124646 0.0146754645 -0.005916763
0001d0 ee 9e 8e 3c 83 d6 31 bd 60 92 1d bb d8 f8 23 3c
       0.017409768 -0.043417465 -0.0024043545 0.010008059
0001e0 ed b9 0f bd 6d 5e 09 3d 8e c9 c3 3c 8e 69 d7 3c
       -0.035089422 0.033537317 0.02389982 0.02629545
0001f0 2d 10 e2 bc 60 71 6a 3b 74 aa 6d bc 60 13 57 3b
       -0.027595604 0.0035773143 -0.014505971 0.0032817945
000200 09 7f 5e bd f8 62 1d bd 0e ef 7f bc aa 0b 43 bc
       -0.05432037 -0.038424462 -0.01562096 -0.011904636
000210 94 c8 23 bc 09 eb e4 3c 9f dd 87 bb e0 0f b5 bc
       -0.009996552 0.027944105 -0.0041462923 -0.022102296
000220 50 5c 48 bb 4e a0 85 3c 40 44 bd bc bb 2c 80 bc
       -0.00305726 0.01631179 -0.023103833 -0.01564633
000230 73 25 9d ba 1b 9e 45 3d b0 1e ae bc e0 53 42 3d
       -0.001198931 0.048246484 -0.021254867 0.04744327
000240 3b 19 6f bd 7a 5e 73 be b2 65 7f bd da d5 3e be
       -0.05837367 -0.23766509 -0.062352844 -0.18636265
000250 24 fe 4a 3e c8 fa 47 3e a1 0e ca bc 59 44 83 3e
       0.1982351 0.19529259 -0.024665179 0.25638083
000260 0d b7 8b 3e ef 97 48 be 6d a5 1c 3e d2 43 8a 3d
       0.27288094 -0.19589208 0.1529748 0.06751217
000270 ad d2 81 3e f3 9a 21 be 76 2e 9f be 25 92 96 be
       0.25356045 -0.15781765 -0.31090134 -0.29408374
000280 71 da 4c bb 89 b7 26 bd 4e 5c d1 3c 38 56 16 bd
       -0.003125813 -0.040702377 0.02555671 -0.03670332
000290 10 10 cc 3d e8 60 15 3e 7c b6 92 bc 2c c2 af 3d
       0.09964001 0.14587748 -0.017909281 0.08581957
0002a0 73 b2 e0 3d 9d 7d 85 bd 07 c9 1e 3d 67 5c f9 3c
       0.109715365 -0.065180995 0.038765933 0.030439569
0002b0 7a 9c 08 3e 96 4d bb bc f8 b4 24 be ed aa 01 be
       0.13340941 -0.022864144 -0.16084659 -0.1266286
0002c0 fa d3 2c 3d 26 9f bb 3c 51 06 b8 bd 33 d8 38 3c
       0.042194344 0.022903036 -0.0898558 0.011282015
0002d0 ea 1e 86 bc e1 a0 1f bc d6 96 07 bd 90 d2 3e bc
       -0.016372163 -0.009742946 -0.033102833 -0.011646882
0002e0 79 4d 36 3d a7 d8 17 3d c3 66 92 3d 86 39 3f bc
       0.044507477 0.03707185 0.071485065 -0.0116714295
0002f0 63 22 5e 3c 68 6b f0 bc b0 3d f2 3c 66 2e f0 bc
       0.013558003 -0.02934809 0.02957043 -0.029319
000300 22 dd e0 bc a5 d7 88 3b 91 c3 5d 3d 37 09 ce 3d
       -0.027449194 0.0041760975 0.054141585 0.10060351
000310 2a 10 b8 bc 8d 15 c7 3c ba 25 bb 3c 6f fe c3 3c
       -0.022468645 0.024302268 0.022845138 0.023925034
000320 f3 ce fd 3c bf c6 18 bd 46 16 8f bd 10 c9 85 3c
       0.03098247 -0.037298914 -0.0698667 0.016331226
000330 74 e6 0d bd 88 91 bf 3c 33 a3 a2 bc b6 d9 00 3d
       -0.034643605 0.023384824 -0.01985321 0.031457625
000340 00 0f a8 3d 32 d5 39 3d 6e 34 1c 3d 1d 62 81 3c
       0.08205986 0.045369335 0.03813594 0.015793854
000350 50 a0 ab bd d3 f1 15 3d 2d 29 d8 bd 29 4c 2a 3d
       -0.083801866 0.036607575 -0.10554729 0.04157654
000360 3b f0 a0 bd dd 80 c3 bc 50 56 0f bd 26 8e 68 3d
       -0.0785832 -0.023865158 -0.034994423 0.05677619
000370 b4 81 70 bd 43 2c 2e bd 9b d1 84 3b 75 39 ae 3c
       -0.058717445 -0.04252268 0.004053307 0.021267632
000380 7b 24 8a bb e6 56 be 3c c1 57 d2 bc c6 0b a1 bc
       -0.0042157746 0.023234796 -0.02567661 -0.019658934
000390 7c 27 16 bc d7 08 79 bc 88 a8 2a bd 73 3e 0b bd
       -0.009164687 -0.0151998615 -0.04166463 -0.033995103
0003a0 ba de 86 bb 9d 2f 0e 3d fd ba be bc 99 81 43 bd
       -0.0041159065 0.034713376 -0.023282522 -0.047731016
0003b0 b6 d9 81 bd 9f 19 b0 bc 13 ed d3 bc a2 72 03 bd
       -0.06340353 -0.021496592 -0.025869882 -0.032091744
0003c0 89 17 df bc 0b e1 2c bd 5c 3e 11 3d d4 72 88 3b
       -0.027232902 -0.042206805 0.03545986 0.004164079
0003d0 94 71 80 3b d8 e8 c8 3c a6 2c 19 3d 24 fb 88 bc
       0.0039197896 0.024525091 0.037396096 -0.016721316
0003e0 31 c6 91 3d 8a 87 6f bd 9d dc 82 3c 60 0e e8 3b
       0.0711788 -0.05847887 0.015974337 0.0070817918
0003f0 a2 38 b8 3c 37 61 27 3c 06 55 f8 bc 70 a4 e7 3c
       0.022487942 0.010216049 -0.03031398 0.028276652
